…
         nn.Linear(512, 1),\n            nn.Sigmoid()\n        )\n\n    def forward(self, x):\n        x = self.features(x)\n        x = self.classifier(x)\n        return x\n\nmodel = ClassicCNN()\nprint(model)","metadata":{"trusted":true,"execution":{"iopub.status.busy":"2026-03-10T16:09:49.553976Z","iopub.execute_input":"2026-03-10T16:09:49.554237Z","iopub.status.idle":"2026-03-10T16:09:55.748157Z","shell.execute_reply.started":"2026-03-10T16:09:49.554213Z","shell.execute_reply":"2026-03-10T16:09:55.74749Z"}},"outputs":[{"name":"stdout","text":"ClassicCNN(\n  (features): Sequential(\n    (0): Conv2d(3, 32, kernel_size=(3, 3), stride=(1, 1), padding=(1, 1))\n    (1): BatchNorm2d(32, eps=1e-05, momentum=0.1, affine=True, track_running_stats=True)\n    (2): ReLU()\n    (3): MaxPool2d(kernel_size=2, stride=2, padding=0, dilation=1, ceil_mode=False)\n    (4): Conv2d(32, 64, kernel_size=(3, 3), stride=(1, 1), padding=(1, 1))\n    (5): BatchNorm2d(64, eps=1e-05, momentum=0.1, affine=True, track_running_stats=True)\n    (6): ReLU()\n    (7): MaxPool2d(kernel_size=2, stride=2, padding=0, dilation=1, ceil_mode=False)\n    (8): Conv2d(64, 128, kernel_size=(3, 3), stride=(1, 1), padding=(1, 1))\n    (9): BatchNorm2d(128, eps=1e-05, momentum=0.1, affine=True, track_running_stats=True)\n    (10): ReLU()\n    (11): MaxPool2d(kernel_size=2, stride=2, padding=0, dilation=1, ceil_mode=False)\n    (12): Conv2d(128, 256, kernel_size=(3, 3), stride=(1, 1), padding=(1, 1))\n    (13): BatchNorm2d(256, eps=1e-05, momentum=0.1, affine=True, track_running_stats=True)\n    (14): ReLU()\n    (15): MaxPool2d(kernel_size=2, stride=2, padding=0, dilation=1, ceil_mode=False)\n    (16): Conv2d(256, 512, kernel_size=(3, 3), stride=(1, 1), padding=(1, 1))\n    (17): BatchNorm2d(512, eps=1e-05, momentum=0.1, affine=True, track_running_stats=True)\n    (18): ReLU()\n    (19): MaxPool2d(kernel_size=2, stride=2, padding=0, dilation=1, ceil_mode=False)\n  )\n  (classifier): Sequential(\n    (0): Flatten(start_dim=1, end_dim=-1)\n    (1): Linear(in_features=524288, out_features=512, bias=True)\n    (2): ReLU()\n    (3): Dropout(p=0.5, inplace=False)\n    (4): Linear(in_features=512, out_features=1, bias=True)\n    (5): Sigmoid()\n  )\n)\n","output_type":"stream"}],"execution_count":8},{"cell_type":"code","source":"train_df['label'] = train_df['filename'].str[12].astype(int)\ntest_df['label'] = test_df['filename'].str[12].astype(int)","metadata":{"trusted":true,"execution":{"iopub.status.busy":"2026-03-10T16:09:55.749106Z","iopub.execute_input":"2026-03-10T16:
…
